theta_plot.npy (npy, 16128 bytes, 1 tensors)

array f8 [500, 4]
0.5929314587251912 0.9366025085561184 0.5309193193057221 0.06743431869165543 0.644857403248412 0.9366025085561184 0.4754748748612776 0.017534318691655455
0.6841006750171539 0.9366025085561184 0.4201415415279442 -0.03226568130834456 0.7297633402749217 0.9366025085561184 0.3649193193057219 -0.08196568130834453
0.7698443718096522 0.9366025085561184 0.30980820819461075 -0.1315656813083445 0.8125104094864186 0.9366025085561184 0.2548082081946107 -0.1810656813083445
0.852914140471178 0.9366025085561184 0.19991931930572177 -0.2304656813083445 0.8909217804493904 0.9366025085561184 0.14514154152794398 -0.27976568130834445
0.9305772173584645 0.9366025085561184 0.09047487486127728 -0.3289656813083444 0.9729988490997079 0.9366025085561184 0.0359193193057217 -0.3780656813083444
1.0061094069928302 0.9366025085561184 -0.01852512513872276 -0.4270656813083443 1.044029343805136 0.9366025085561184 -0.0728584584720561 -0.4759656813083443
1.0789453096432435 0.9366025085561184 -0.12708068069427833 -0.5247656813083443 1.117845883121386 0.9366025085561184 -0.18119179180538944 -0.5734656813083443
1.160704124745872 0.9366025085561184 -0.23519179180538946 -0.6220656813083443 1.2014275140011137 0.9366025085561184 -0.28908068069427834 -0.6705656813083443
1.2411517321660357 0.9366025085561184 -0.3428584584720561 -0.7189656813083443 1.2749795224054505 0.9366025085561184 -0.39652512513872273 -0.7672656813083443
1.3077203406531237 0.9366025085561184 -0.45008068069427826 -0.8154656813083442 1.344425038408947 0.9366025085561184 -0.5035251251387227 -0.8635656813083441
1.380127914053643 0.9366025085561184 -0.5568584584720561 -0.911565681308344 1.4168213065061896 0.9366025085561184 -0.6100806806942782 -0.959465681308344
1.4523628839091847 0.9366025085561184 -0.6631917918053893 -1.0072656813083438 1.4839755391465796 0.9366025085561184 -0.7161917918053893 -1.0549656813083437
1.5273955946011595 0.9366025085561184 -0.7690806806942782 -1.1025656813083435 1.5619347473745209 0.9366025085561184 -0.8218584584720559 -1.1500656813083434
1.5945525171187707 0.9366025085561184 -0.8745251251387225 -1.1974656813083433 1.6329004824278979 0.9366025085561184 -0.927080680694278 -1.2447656813083432
1.6702220389794808 0.9366025085561184 -0.9795251251387224 -1.291965681308343 1.7045175550891098 0.9366025085561184 -1.0318584584720556 -1.339065681308343
1.7465817603594738 0.9366025085561184 -1.0840806806942778 -1.386065681308343 1.7827593927836982 0.9366025085561184 -1.1361917918053888 -1.432965681308343
1.816877400489751 0.9366025085561184 -1.1881917918053888 -1.4797656813083429 1.853890343676631 0.9366025085561184 -1.2400806806942777 -1.5264656813083428
1.8851380063361272 0.9366025085561184 -1.2918584584720554 -1.5730656813083428 1.9201593979733922 0.9366025085561184 -1.343525125138722 -1.6195656813083428
1.9513028061329374 0.9366025085561184 -1.3950806806942775 -1.6659656813083428 1.9871132053515865 0.9366025085561184 -1.446525125138722 -1.7122656813083426
2.021973610484289 0.9366025085561184 -1.4978584584720551 -1.7584656813083424 2.055814641799499 0.9366025085561184 -1.5490806806942772 -1.8045656813083422
2.093439131842606 0.9366025085561184 -1.6001917918053883 -1.850565681308342 2.129018707228953 0.9366025085561184 -1.6511917918053882 -1.8964656813083418
2.1654306924416 0.9366025085561184 -1.702080680694277 -1.9422656813083417 2.1999064462409743 0.9366025085561184 -1.7528584584720546 -1.9879656813083415
2.2381453469168067 0.9366025085561184 -1.8035251251387212 -2.0335656813083416 2.2725920097340193 0.9366025085561184 -1.8540806806942767 -2.0790656813083412
2.3031240150968153 0.9366025085561184 -1.904525125138721 -2.124465681308341 2.3363651884184518 0.9366025085561184 -1.954858458472054 -2.169765681308341
2.370563562037816 0.9366025085561184 -2.005080680694276 -2.2149656813083407 2.4111901916540046 0.9366025085561184 -2.0551917918053872 -2.2600656813083404
2.4480690897900748 0.9366025085561184 -2.105191791805387 -2.3050656813083403 2.483957504691237 0.9366025085561184 -2.155080680694276 -2.34996568130834
2.5197705686236755 0.9366025085561184 -2.2048584584720534 -2.39476568130834 2.5545602431232672 0.9366025085561184 -2.25452512513872 -2.4394656813083397
2.591206056448981 0.9366025085561184 -2.3040806806942755 -2.4840656813083397 2.623139148762523 0.9366025085561184 -2.3535251251387197 -2.5285656813083395
2.6550492494851534 0.9366025085561184 -2.402858458472053 -2.5729656813083395 2.6887990476543613 0.9366025085561184 -2.452080680694275 -2.6172656813083393
2.721476851158749 0.9366025085561184 -2.501191791805386 -2.6614656813083393 2.756890320297616 0.9366025085561184 -2.550191791805386 -2.705565681308339
2.7894788159891974 0.9366025085561184 -2.5990806806942746 -2.749565681308339 2.8293128348218604 0.9366025085561184 -2.647858458472052 -2.793465681308339
2.867276124730576 0.9366025085561184 -2.696525125138719 -2.8372656813083386 2.905147575439017 0.9366025085561184 -2.745080680694274 -2.8809656813083384
00000000: 0fd1 ff64 4bf9 e23f ed33 f3d2 a5f8 ed3f
00000010: ef71 2783 4afd e03f aba0 6821 6043 b13f
00000020: 1c22 31fe aba2 e43f ed33 f3d2 a5f8 ed3f
00000030: 0c54 662b 2e6e de3f c26b 5a35 84f4 913f
00000040: aed8 4b19 27e4 e53f ed33 f3d2 a5f8 ed3f
00000050: 4d6d 2359 99e3 da3f 7847 019c 2085 a0bf
00000060: c49d 09a6 385a e73f ed33 f3d2 a5f8 ed3f
00000070: a12f 868f d65a d73f 541b 9df0 b3fb b4bf
00000080: eed3 fda9 90a2 e83f ed33 f3d2 a5f8 ed3f
00000090: 089b 8ece e5d3 d33f ee65 3fed 24d7 c0bf
000000a0: 68eb 8cd4 1500 ea3f ed33 f3d2 a5f8 ed3f
000000b0: 82af 3c16 c74e d03f aada d205 292d c7bf
000000c0: 40d4 7398 124b eb3f ed33 f3d2 a5f8 ed3f
000000d0: 1eda 20cd f496 c93f deeb 0842 e67f cdbf
000000e0: 0b60 ca64 6e82 ec3f ed33 f3d2 a5f8 ed3f
000000f0: 5fa7 137f ff93 c23f c4cc f050 aee7 d1bf
00000100: 1ca2 5edf 49c7 ed3f ed33 f3d2 a5f8 ed3f
00000110: 8a8d a384 5c29 b73f d571 ae12 c60d d5bf
00000120: 6cb9 7d7b ce22 ef3f ed33 f3d2 a5f8 ed3f
00000130: 44e1 6c5b 0464 a23f 2265 3d66 3a32 d8bf
00000140: edb6 732d 0619 f03f ed33 f3d2 a5f8 ed3f
00000150: e81f 801a 40f8 92bf aaa6 9d4b 0b55 dbbf
00000160: 8251 fb1c 58b4 f03f ed33 f3d2 a5f8 ed3f
00000170: 4adc 5f18 daa6 b2bf 6f36 cfc2 3876 debf
00000180: f871 3128 5c43 f13f ed33 f3d2 a5f8 ed3f
00000190: 2786 c403 2e44 c0bf 380a e965 e1ca e0bf
000001a0: ed97 5f5d b2e2 f13f ed33 f3d2 a5f8 ed3f
000001b0: 03cc 0dea 4a31 c7bf 5620 53b3 d459 e2bf
000001c0: 6bda 017d 3e92 f23f ed33 f3d2 a5f8 ed3f
000001d0: babf 0bbf c31a cebf 92dd a549 f6e7 e3bf
000001e0: cd63 920e 0c39 f33f ed33 f3d2 a5f8 ed3f
000001f0: a530 5f41 4c80 d2bf ec41 e128 4675 e5bf
00000200: 146e 30eb c1db f33f ed33 f3d2 a5f8 ed3f
00000210: 5ad8 929a 64f1 d5bf 644d 0551 c401 e7bf
00000220: 58d1 7ced 5066 f43f ed33 f3d2 a5f8 ed3f
00000230: fcd6 20eb aa60 d9bf faff 11c2 708d e8bf
00000240: d2b4 f629 6cec f43f ed33 f3d2 a5f8 ed3f
00000250: 8b2c 0933 1fce dcbf ad59 077c 4b18 eabf
00000260: 523d 3ed4 c382 f53f ed33 f3d2 a5f8 ed3f
00000270: 84ec 25b9 e01c e0bf 7e5a e57e 54a2 ebbf
00000280: 7783 f201 0115 f63f ed33 f3d2 a5f8 ed3f
00000290: 396e 74d4 c8d1 e1bf 6d02 acca 8b2b edbf
000002a0: 6f85 7bd1 4cab f63f ed33 f3d2 a5f8 ed3f
000002b0: 641b 70eb c785 e3bf 7a51 5b5f f1b3 eebf
000002c0: ef06 05dd e03c f73f ed33 f3d2 a5f8 ed3f
000002d0: 06f4 18fe dd38 e5bf d2a3 799e c21d f0bf
000002e0: 2b2d 8b22 5dbe f73f ed33 f3d2 a5f8 ed3f
000002f0: 1ef8 6e0c 0beb e6bf 76f2 b9b1 23e1 f0bf
00000300: ffdc ed5c 3670 f83f ed33 f3d2 a5f8 ed3f
00000310: ad27 7216 4f9c e8bf a994 6ee9 1ba4 f1bf
00000320: 7a5a 274a affd f83f ed33 f3d2 a5f8 ed3f
00000330: b282 221c aa4c eabf 6b8a 9745 ab66 f2bf
00000340: 3e79 0c80 4983 f93f ed33 f3d2 a5f8 ed3f
00000350: 2e09 801d 1cfc ebbf bcd3 34c6 d128 f3bf
00000360: 3868 9a41 5c20 fa3f ed33 f3d2 a5f8 ed3f
00000370: 20bb 8a1a a5aa edbf 9c70 466b 8fea f3bf
00000380: dc9a a7be 3ab9 fa3f ed33 f3d2 a5f8 ed3f
00000390: 8998 4213 4558 efbf 0b61 cc34 e4ab f4bf
000003a0: b80c 2933 b445 fb3f ed33 f3d2 a5f8 ed3f
000003b0: b4d0 d303 7e82 f0bf 09a5 c622 d06c f5bf
000003c0: 778b 48b7 fff1 fb3f ed33 f3d2 a5f8 ed3f
000003d0: dfea dcfb 6458 f1bf 963c 3535 532d f6bf
000003e0: eb48 8ab6 2e86 fc3f ed33 f3d2 a5f8 ed3f
000003f0: c59a bc71 d72d f2bf b227 186c 6ded f6bf
00000400: 9e1e 7f09 ee11 fd3f ed33 f3d2 a5f8 ed3f
00000410: 67e0 7265 d502 f3bf 5d66 6fc7 1ead f7bf
00000420: 9c61 c7eb 88a9 fd3f ed33 f3d2 a5f8 ed3f
00000430: c4bb ffd6 5ed7 f3bf 97f8 3a47 676c f8bf
00000440: 9e90 5a78 8629 fe3f ed33 f3d2 a5f8 ed3f
00000450: dc2c 63c6 73ab f4bf 60de 7aeb 462b f9bf
00000460: bd71 960f f9b8 fe3f ed33 f3d2 a5f8 ed3f
00000470: af33 9d33 147f f5bf b817 2fb4 bde9 f9bf
00000480: a4f1 8e4a 8938 ff3f ed33 f3d2 a5f8 ed3f
00000490: 3ed0 ad1e 4052 f6bf 9fa4 57a1 cba7 fabf
000004a0: edf4 6637 37cb ff3f ed33 f3d2 a5f8 ed3f
000004b0: 8802 9587 f724 f7bf 1485 f4b2 7065 fbbf
000004c0: 923d 1380 002d 0040 ed33 f3d2 a5f8 ed3f
000004d0: 8dca 526e 3af7 f7bf 18b9 05e9 ac22 fcbf
000004e0: 9d55 69f2 4e72 0040 ed33 f3d2 a5f8 ed3f
000004f0: 4d28 e7d2 08c9 f8bf ab40 8b43 80df fcbf
00000500: ec71 fb03 5dbf 0040 ed33 f3d2 a5f8 ed3f
00000510: c91b 52b5 629a f9bf cd1b 85c2 ea9b fdbf
00000520: e4f6 c0f5 3a08 0140 ed33 f3d2 a5f8 ed3f
00000530: 00a5 9315 486b fabf 7e4a f365 ec57 febf
00000540: 9854 ae53 cd52 0140 ed33 f3d2 a5f8 ed3f
00000550: f2c3 abf3 b83b fbbf becc d52d 8513 ffbf
00000560: a2ea 068d 6899 0140 ed33 f3d2 a5f8 ed3f
00000570: 9f78 9a4f b50b fcbf 8da2 2c1a b5ce ffbf
00000580: 3a9e 65bf b8e7 0140 ed33 f3d2 a5f8 ed3f
00000590: 08c3 5f29 3ddb fcbf f6e5 7b15 be44 00c0
000005a0: 10ab 37b8 442e 0240 ed33 f3d2 a5f8 ed3f
000005b0: 2ca3 fb80 50aa fdbf 6ca4 1b30 eda1 00c0
000005c0: c5c8 9b48 cc6c 0240 ed33 f3d2 a5f8 ed3f
000005d0: 0b19 6e56 ef78 febf aa8c f5dc e7fe 00c0
000005e0: 3929 5e3b e0b0 0240 ed33 f3d2 a5f8 ed3f
000005f0: a524 b7a9 1947 ffbf af9e 091c ae5b 01c0
00000600: 6055 6007 eaf6 0240 ed33 f3d2 a5f8 ed3f
00000610: fd62 6bbd 670a 00c0 7cda 57ed 3fb8 01c0
00000620: 29b8 4c15 1e4a 0340 ed33 f3d2 a5f8 ed3f
00000630: 867e e664 0871 00c0 1040 e050 9d14 02c0
00000640: 91f9 373f a595 0340 ed33 f3d2 a5f8 ed3f
00000650: ece4 4ccb 6ed7 00c0 6ccf a246 c670 02c0
00000660: c96b ba1c 25df 0340 ed33 f3d2 a5f8 ed3f
00000670: 3096 9ef0 9a3d 01c0 8f88 9fce bacc 02c0
00000680: cc4b cd78 7d28 0440 ed33 f3d2 a5f8 ed3f
00000690: 5192 dbd4 8ca3 01c0 7a6b d6e8 7a28 03c0
000006a0: 8b02 df47 bd6f 0440 ed33 f3d2 a5f8 ed3f
000006b0: 50d9 0378 4409 02c0 2c78 4795 0684 03c0
000006c0: fe29 ad3d caba 0440 ed33 f3d2 a5f8 ed3f
000006d0: 2d6b 17da c16e 02c0 a6ae f2d3 5ddf 03c0
000006e0: a956 c660 30fc 0440 ed33 f3d2 a5f8 ed3f
000006f0: e747 16fb 04d4 02c0 e70e d8a4 803a 04c0
00000700: f276 fe75 8a3d 0540 ed33 f3d2 a5f8 ed3f
00000710: 7f6f 00db 0d39 03c0 f098 f707 6f95 04c0
00000720: 0b88 3913 a982 0540 ed33 f3d2 a5f8 ed3f
00000730: f5e1 d579 dc9d 03c0 c04c 51fd 28f0 04c0
00000740: 1262 c4a7 95c5 0540 ed33 f3d2 a5f8 ed3f
00000750: 489f 96d7 7002 04c0 582a e584 ae4a 05c0
00000760: a3b2 2283 1c0e 0640 ed33 f3d2 a5f8 ed3f
00000770: 79a7 42f4 ca66 04c0 b731 b39e ffa4 05c0
00000780: 9d77 fc44 da50 0640 ed33 f3d2 a5f8 ed3f
00000790: 87fa d9cf eaca 04c0 de62 bb4a 1cff 05c0
000007a0: 1ab4 7dc4 6ea2 0640 ed33 f3d2 a5f8 ed3f
000007b0: 7398 5c6a d02e 05c0 ccbd fd88 0459 06c0
000007c0: 378e 0277 2ef0 0640 ed33 f3d2 a5f8 ed3f
000007d0: 3d81 cac3 7b92 05c0 8142 7a59 b8b2 06c0
000007e0: a083 1403 be3d 0740 ed33 f3d2 a5f8 ed3f
000007f0: e4b4 23dc ecf5 05c0 fef0 30bc 370c 07c0
